submissions/team_uw/src/Germany.pth (torch, 12643 bytes, 5 tensors)

weight_ih_l0 f4 [80, 9]
000000 03 79 78 3b 59 64 b3 3b 96 a6 6e 3c 89 fb bc ba
       0.0037913925 0.005474609 0.014566084 -0.0014418225
000010 3e 28 05 3d d6 85 d6 3c 3b 52 88 3c e6 44 8c 3b
       0.03250908 0.026186865 0.016640773 0.0042806743
000020 f5 39 76 bb 56 16 06 3b b0 17 dd 3b f1 72 06 3c
       -0.0037571166 0.002046009 0.0067472085 0.008206115
000030 bd a5 bd 3b 6f ab 21 3c d1 ca 4e 3c 24 b9 96 3b
       0.00578758 0.009867533 0.012621597 0.004599707
000040 29 e2 e1 39 87 42 0c ba 87 24 72 3b 10 09 63 3c
       0.00043083847 -0.00053504895 0.0036948042 0.013857141
000050 02 ee 65 3c e4 3b 4e 3c a8 c3 9e 3c 1d fe 93 3c
       0.014033796 0.012587521 0.019380406 0.018065507
000060 eb 89 25 3c 7c b1 9a 3b 75 0d 15 3b 49 62 15 3d
       0.010103683 0.004720865 0.0022743617 0.036470685
000070 6c 64 b2 3d 51 13 19 3d 67 ef 51 3d 3f 04 86 3d
       0.0871056 0.037371937 0.051253702 0.06543779
000080 14 53 82 bc 73 ab 91 3c 46 dd 08 3e 95 75 b5 3d
       -0.015908755 0.017781949 0.13365659 0.088603176
000090 4a ef 03 bc b7 93 12 bc ab 58 23 bb 68 03 b7 bc
       -0.008052656 -0.008946351 -0.0024924676 -0.022340491
0000a0 d8 f4 55 3c 55 c9 87 3c c1 88 c9 bb 27 65 b7 bb
       0.013058864 0.016575495 -0.0061503355 -0.005596775
0000b0 6f cf 8b bc 3b 32 1b 3a c3 9c f2 ba ee 34 c4 bb
       -0.017066685 0.00059202657 -0.0018509853 -0.005987755
0000c0 80 09 d0 bb 20 ef cd 39 48 91 9a bb b1 40 32 ba
       -0.0063487887 0.0003927881 -0.004717026 -0.0006799801
0000d0 f2 66 12 bc 8e 76 41 bc 1b 6d 73 3b d1 2f 93 3b
       -0.008935677 -0.011808051 0.003714389 0.004491784
0000e0 a2 b8 50 3c 01 da fc 3a 2e 2f ad ba aa 4c e9 3c
       0.012739332 0.0019291044 -0.0013212913 0.02847894
0000f0 3a 53 00 3b 21 28 1d bc 44 5b 2f bc ab a5 7e bb
       0.0019580857 -0.009592087 -0.010702912 -0.003885607
000100 f2 c9 e8 bb a4 64 ab bb 88 06 89 bc e5 1a be bb
       -0.007104152 -0.005230503 -0.016726747 -0.005801546
000110 17 84 c5 bc a3 a2 11 bc a1 06 95 bb ab c7 70 bc
       -0.024110837 -0.008888873 -0.0045479094 -0.014696042
000120 7e a3 2a 3c b6 3d 69 3c 5e 68 2f 3d f4 84 2c bc
       0.010414956 0.014235904 0.04282414 -0.010529745
000130 db 78 84 3c 85 b4 11 3e ab 8b c0 bc 84 ce 5f bd
       0.01617091 0.14229019 -0.023504099 -0.054640308
000140 dd 3f 80 bd 77 b8 e0 3a 10 ee e5 3b bc af aa 3c
       -0.06262181 0.0017144819 0.0070169047 0.02083575
000150 19 22 09 3c 73 b6 3b 3c 45 40 51 bb 93 d0 67 3c
       0.008369946 0.0114570735 -0.0031929177 0.014148849
000160 ba 53 0a 3c 3e 88 c5 3b cc 10 9e 3c a2 58 c0 3c
       0.0084428135 0.006028204 0.019295119 0.023479763
000170 88 5b 79 3d d5 81 2e 3d 4a ff fe 3c 8a e0 da 3d
       0.060878307 0.042604286 0.03112759 0.10687359
000180 46 8a be bc b3 94 09 3d ca e9 ca bb 9b ce 87 3b
       -0.023259293 0.033589076 -0.0061924206 0.0041445023
000190 7d 03 a2 3b 52 ab 51 3c 61 92 0f bc 70 63 a8 bb
       0.0049442635 0.012797194 -0.008762927 -0.005138807
0001a0 8a d1 47 3d 10 4d c8 bc d1 0d 49 3b ca c6 5c bc
       0.048783816 -0.024450809 0.0030678401 -0.013475129
0001b0 49 7f 03 be 92 d3 19 3d 28 2b 63 3d 5b 52 7b bd
       -0.12841524 0.037555285 0.05546108 -0.061357837
0001c0 d7 e3 36 bd c3 4a 24 bc 25 17 1d 3e f9 13 ca be
       -0.04465088 -0.01002759 0.1534086 -0.39468363
0001d0 cd c5 80 be 09 f9 33 3b 1c 05 0f bb a3 ad 47 3b
       -0.2515091 0.002746167 -0.0021823114 0.0030468486
0001e0 1f a2 8c bb 3b 6a 04 bb e8 38 5a 3c 31 98 72 bc
       -0.0042917873 -0.002020492 0.013319232 -0.014806793
0001f0 f8 6a f1 bb 26 e5 53 bc 53 58 d1 b9 2d ad 10 bb
       -0.007367488 -0.012933051 -0.00039929393 -0.0022075877
000200 ac cd a2 3b 9b dc f9 bb 91 c0 4d 3c 79 f8 ca 3c
       0.0049683657 -0.007625175 0.012558118 0.024776684
000210 67 23 10 3c 37 f6 02 3b 82 a8 19 bc 20 59 44 3b
       0.008797503 0.0019983181 -0.009378554 0.002996035
000220 14 6c 22 bc 90 ad bc 3b 68 ed 69 bc a5 82 f2 3c
       -0.009913463 0.005757995 -0.0142777935 0.029603312
000230 f2 d2 3a 3d 26 f5 38 bc 88 87 10 bc ef 23 b5 bc
       0.04561133 -0.011288917 -0.008821376 -0.022111861
000240 f6 5d a3 3c fa f9 c8 3d 83 71 e4 3d 59 7c 91 3d
       0.019942265 0.09813304 0.11154463 0.071037956
000250 a4 e0 9f 3c 53 86 80 3d a1 fd 92 3d a1 25 01 3d
       0.019516297 0.0627562 0.07177282 0.031530026
000260 f1 6c 0c 3d 40 9f 15 3b 4a 52 97 ba 6a 88 ba 3b
       0.034283582 0.0022830516 -0.001154491 0.0056925314
000270 ee 9e 08 bc a9 c5 8d 3c 23 00 24 3d e5 63 3f bc
       -0.008338673 0.017306166 0.040039193 -0.011681532
000280 3e 33 5a bc 04 90 9f bc 2d c1 3b 3b 2c e3 b9 3b
       -0.013317881 -0.019477852 0.0028649077 0.005672833
000290 71 9a d3 3b 9c 56 86 3b 47 ce f0 3c 89 e2 a3 3c
       0.00645762 0.00409968 0.029395236 0.020005481
0002a0 6b 83 6d 3c a9 4f 5a 3c 5a 69 b3 3b da 07 60 3a
       0.0144966645 0.0133246565 0.0054752054 0.0008546092
0002b0 a0 11 89 bc 38 e6 0e bd fd 4e 22 bc 78 4d 0f bc
       -0.016732037 -0.034887522 -0.009906528 -0.008746497
0002c0 d3 4d 36 3d 94 9a 0a bd e2 42 34 bb cc b2 13 bd
       0.044507813 -0.033838823 -0.0027505686 -0.036059186
0002d0 09 90 4f 39 4e 64 66 3b 44 e5 82 3c 9d 09 06 bb
       0.00019794716 0.0035155 0.015978463 -0.0020452507
0002e0 87 4d ef 3c 6d e8 cf 3c 48 72 52 3c 46 6f cf 3b
       0.029211773 0.025379384 0.01284463 0.0063304035
0002f0 f1 2f 31 bb fc 91 e7 3a 28 4c b8 3b 55 05 12 3c
       -0.0027036632 0.0017667408 0.005624313 0.008912404
000300 9a a5 cc 3b 00 20 32 3c 70 78 34 3c 4d 90 99 3b
       0.006245327 0.010871887 0.011015043 0.0046863914
000310 65 c1 cc 39 61 95 70 ba e4 7d e0 3a bf 38 42 3c
       0.00039054002 -0.00091775326 0.0017127362 0.01185435
000320 24 ed 42 3c cc a1 3b 3c c0 c0 96 3c a1 b5 61 3c
       0.011897359 0.01145215 0.018402457 0.013776214
000330 82 c0 fb 3b e1 85 b5 3b 2e 70 3f 3b 62 20 20 3d
       0.007682861 0.0055396412 0.0029211151 0.039093383
000340 da 60 b0 3d 0e dc 00 3e 9d 10 e4 3d c5 3b 38 bb
       0.08612223 0.12583944 0.11135981 -0.0028111797
000350 6a f4 ca 3b 9b 43 31 3d a1 07 1b 3e 98 5a a6 3d
       0.006193687 0.043277364 0.15139629 0.08122748
000360 a7 00 fc bb 30 01 50 bb cb 41 a8 3c 2d 5f f9 bb
       -0.0076905075 -0.003173899 0.020539185 -0.007610223
000370 35 6e b0 ba 4e 24 8c 3d 0b 27 a5 bb 91 74 f7 bb
       -0.0013460579 0.06842862 -0.0050400547 -0.0075517376
000380 8e 70 a3 bc 3b 7c da 39 31 c9 1b ba 39 ab 27 3c
       -0.019951131 0.0004167276 -0.00059427606 0.010233694
000390 14 3a 9b bb 63 cb 18 3c 4c 96 79 3c cd cc f6 3a
       -0.004737148 0.009325835 0.0152335875 0.0018829346
0003a0 94 08 14 bc 60 13 54 bc 28 bd 47 3b ad be 7e 3c
       -0.009035248 -0.0129440725 0.0030477736 0.01554839
0003b0 31 23 e0 3c 24 cf e4 3b 11 a5 20 3c 2b b5 40 3d
       0.02736053 0.006982701 0.00980498 0.047047775
0003c0 07 24 ce 3b 04 e5 9b bb 95 32 00 bc a9 35 9e bb
       0.006290916 -0.0047575254 -0.00782456 -0.004828174
0003d0 90 9e 23 bc df 62 3b bb 00 76 24 bc 7d 59 20 3b
       -0.009986535 -0.0028592867 -0.010037899 0.0024467402
0003e0 c2 73 11 3c 97 99 c1 bb c3 1e f1 b7 d1 46 14 bc
       0.0088776965 -0.005908202 -2.8743763e-05 -0.009050087
0003f0 da 22 ed 3c 44 73 b3 3c 10 28 95 3d eb 0c 9c 3c
       0.028947283 0.021905549 0.07283032 0.019049129

weight_hh_l0 f4 [80, 20]
000000 f7 d6 77 bc a5 6f d9 3b d7 a8 d8 3b fd a8 aa bc
       -0.015126935 0.0066356235 0.006611924 -0.020832533
000010 63 72 91 bc 86 68 24 3c e6 27 32 bc 76 ba 43 bc
       -0.01775474 0.010034686 -0.01087377 -0.011946311
000020 13 28 08 3c 1f f2 57 3c 61 e0 aa bc e7 82 39 bc
       0.008310336 0.013180285 -0.020858945 -0.011322713
000030 f3 d4 6b 3d 1c 23 14 bc c7 29 57 bc a4 8e 4d 3c
       0.05757613 -0.009041574 -0.013132519 0.012546215
000040 94 89 11 3d b2 bc 1c 3c e4 34 21 3c 2c 8d 8e bc
       0.035531595 0.009566473 0.00983927 -0.0174013
000050 38 ca 2a bb 5f 50 a2 3a c8 c7 79 3a 4f 1a c1 bb
       -0.0026060473 0.0012383572 0.0009528366 -0.005893029
000060 38 37 8a bb 5b f0 13 3b 48 1b 3e bb 28 c5 2b bb
       -0.0042180084 0.0022573683 -0.002900796 -0.0026210044
000070 1b aa 40 3b bc 6a 16 3b 8e e4 b5 bb a9 26 38 bb
       0.0029398266 0.0022951802 -0.0055509275 -0.0028099215
000080 78 b5 3c 3c a5 ba ee ba 0b 37 24 bb 81 2b 2f 3b
       0.011517875 -0.0018213583 -0.0025057222 0.0026728811
000090 ba 5a 12 3c 93 65 11 3b 9a 82 ab 3a ff 11 89 bb
       0.008932764 0.0022185787 0.0013085187 -0.0041830535
0000a0 9f 5c c0 bb 6b 4e 20 3b 9d 09 23 3b 93 d3 1a bc
       -0.0058704163 0.0024460803 0.0024877556 -0.009449857
0000b0 c3 10 fb bb 99 00 85 3b 50 d8 bd bb e7 08 ad bb
       -0.0076619103 0.004058909 -0.0057936087 -0.0052806023
0000c0 21 48 c7 3b 12 f2 96 3b bf cb 23 bc 48 b1 a6 bb
       0.0060815965 0.0046064937 -0.009997307 -0.0050870515
0000d0 8b db a5 3c 9c b9 74 bb 1c 9e bf bb 06 b9 bf 3b
       0.020246288 -0.0037342077 -0.0058477055 0.005850914
0000e0 2a 3c 75 3c cc 70 a5 3b e2 a5 74 3b f8 ec f7 bb
       0.0149679575 0.005048847 0.003733032 -0.0075660907
0000f0 7c 72 8f bc cc 0f 00 3c 85 a0 39 3c 1e 76 8a 3c
       -0.017510645 0.007816266 0.011329775 0.016902026
000100 5f 72 bc bc 51 0d fe 3a 61 e3 c3 bc b0 f3 74 bc
       -0.023003755 0.0019382631 -0.023912134 -0.014950678
000110 a2 42 21 3d 78 57 b0 3c a3 ac 06 bd 01 53 68 bc
       0.039370187 0.021526083 -0.032879483 -0.014179946
000120 2a 4e dd 3c 79 eb 70 bb e7 11 d3 bc 81 60 05 3d
       0.02701481 -0.0036761446 -0.025765372 0.032562736
000130 5a a8 f9 3c 75 f6 df 3c 69 00 93 3c 2e 4b 76 bc
       0.030475784 0.0273392 0.017944532 -0.015032573
000140 25 bd 37 bc 32 18 bc 3b 63 4f ac 3b 1e 1d 19 bc
       -0.011214529 0.005740189 0.005258487 -0.009345321
000150 ef 42 23 bc f6 a3 b1 3b 76 a4 b0 bb d5 7d c8 bb
       -0.009964689 0.005421157 -0.005390699 -0.006118516
000160 79 db 81 3b 49 f0 3c 3c b2 5c 41 bc 9f 88 b8 bb
       0.0039629308 0.011531898 -0.011801885 -0.005631521
000170 9a 94 4e 3d f0 39 d9 bb e2 6f f5 bb cf 2e f3 3b
       0.050434686 -0.006629221 -0.007490144 0.0074213515
000180 3e fd b1 3c b4 23 b1 3b f1 bd 0c 3c e8 22 15 bc
       0.0217272 0.0054058675 0.008590207 -0.009102561
000190 2c d8 9b bb 61 44 33 3b f8 bd 20 3b 15 6d 40 bc
       -0.0047559943 0.002735399 0.0024527293 -0.011744757
0001a0 14 73 be bb 5a 73 80 3b a4 ea 80 bb d7 eb 42 bb
       -0.005812058 0.003920001 -0.0039342213 -0.0029742622
0001b0 dd 41 83 3b 44 e3 95 3b 20 46 e2 bb 8d 0b 4a bb
       0.0040056542 0.0045742113 -0.006905332 -0.0030829639
0001c0 e8 eb d9 3c e2 15 59 bb 2e 61 4d bb 16 d9 75 3b
       0.026601747 -0.0033124615 -0.0031338441 0.0037513427
0001d0 d5 97 67 3c aa 78 47 3b 71 d0 e4 3a 82 60 a6 bb
       0.014135321 0.0030436912 0.001745714 -0.0050774226
0001e0 29 3d 64 ba f2 ac 56 3a 48 c6 9b ba d0 ea 98 3a
       -0.00087066233 0.0008189223 -0.0011884654 0.0011666659
0001f0 d1 77 5e bb e6 09 61 3a 4f 22 92 bb cf 9a d3 ba
       -0.0033945928 0.0008584544 -0.0044596563 -0.0016144159
000200 2f d3 00 3c ed bb 5c 3b a0 0a 15 bc 61 65 e4 ba
       0.00786285 0.0033681348 -0.0090967715 -0.0017425233
000210 0e eb 70 3c 9b c8 aa ba 50 b4 98 39 37 45 e4 3a
       0.014704479 -0.0013029756 0.00029126043 0.0017415647
000220 dc dc 3e 3c b5 5e be 3a c4 b7 4e ba 8d 46 9d bb
       0.011649337 0.0014524075 -0.00078856596 -0.00479967
000230 f0 b2 ae bb 70 d9 52 3b a7 82 4d 3b df c6 30 bb
       -0.0053313896 0.003217306 0.0031358392 -0.0026974005
000240 e2 da 77 bb c1 9f 07 3b 98 4b 31 bb be 8d ec ba
       -0.0037819673 0.0020694586 -0.0027053114 -0.0018047614
000250 fc 35 7b 3b 73 d7 d0 3b 19 b1 d2 bb eb ee cc ba
       0.0038331738 0.00637334 -0.006429803 -0.0015635168
000260 98 bd e3 3c d1 3b 24 bb 66 79 40 bb 54 4e 6e 3b
       0.027800366 -0.0025060067 -0.0029369234 0.0036362605
000270 72 a7 32 3c e7 cd 17 3b 19 c4 68 3b b1 86 4c bb
       0.01090418 0.00231635 0.0035517274 -0.0031208212
000280 c8 0e 8e bb 51 96 0c 39 df c2 85 bb de 3c ec bc
       -0.004335258 0.00013407438 -0.0040820683 -0.028837617
000290 29 c6 b1 bc e0 76 8b 3b 13 c1 14 bb 7e f8 ba bb
       -0.021700935 0.0042561144 -0.002269809 -0.005705892
0002a0 ae a8 20 3c d8 8f 87 3b 73 ed bc bc 30 85 49 bc
       0.009805841 0.0041370206 -0.023062443 -0.012299821
0002b0 36 c7 ce ba d0 d5 a0 bb cb 7f 4e 3b a8 70 01 3b
       -0.0015775922 -0.004908301 0.0031509276 0.0019750986
0002c0 d9 e3 fa bb 7e ec a0 ba 0b 7a 02 bb 9b ff 9c bc
       -0.007656556 -0.0012277511 -0.001990917 -0.019164851
0002d0 f1 78 14 bc 27 b0 80 3b 22 23 87 3b af 07 b3 bb
       -0.009062038 0.003927249 0.004124061 -0.0054635624
0002e0 ef 4e 3b bc ae ec bc 3b e9 8c 23 bc b3 01 11 bc
       -0.011432393 0.005765519 -0.009982326 -0.008850503
0002f0 8a 0e 17 3c 84 60 0c 3c 40 97 8c bc eb f8 03 bc
       0.009219775 0.008567933 -0.017161965 -0.008054952
000300 ac 72 08 3d c6 10 cd bb 79 c1 25 bc 4c 16 26 3c
       0.033312485 -0.006258103 -0.010116928 0.010137152
000310 93 06 05 3d 89 e4 0c 3c a0 0e d1 3b 5a e7 56 bc
       0.032476973 0.008599409 0.0063799173 -0.013116682
000320 b0 9c 59 bc 98 d1 d2 3b ae b3 86 3b d8 60 12 bc
       -0.013281986 0.006433677 0.004110775 -0.008934222
000330 1d 3f a2 bc 92 ee 97 3b a0 32 4b bc fc 63 07 bc
       -0.019805485 0.004636594 -0.012402207 -0.008263584
000340 95 e0 c1 3c 74 46 81 3c dd b4 e4 bc a3 68 38 bc
       0.02366666 0.015780665 -0.027918274 -0.011255416
000350 78 98 2d 3d 3d 1b b9 bb 1f 3b 1a bc 20 a4 83 3c
       0.042381734 -0.005648999 -0.00941351 0.016069472
000360 50 46 b8 3c 61 91 35 3c 09 63 e5 3b 78 1b 78 bc
       0.022494465 0.011082024 0.0070003313 -0.015143268
000370 05 fb b3 ba 5c 46 bc 3a 5f c8 c9 3a c2 b0 73 bb
       -0.0013731426 0.001436423 0.0015394798 -0.0037184213
000380 42 72 72 ba 60 74 8e ba 75 67 f6 3a 4d 0f d3 3a
       -0.0009248593 -0.0010868423 0.0018799143 0.0016102582
000390 ce 88 a5 3a 0c 48 57 3b 5b 97 d5 ba 34 09 8a 39
       0.0012629272 0.003284934 -0.0016295718 0.00026328268
0003a0 ba c3 0e 3c 3b 3d 03 3a 7e 98 94 3a 73 97 4b 3a
       0.008713657 0.00050063775 0.001133695 0.0007766403
0003b0 26 4b 41 bb 8d ef 44 ba 14 b4 9e 3a 76 92 90 39
       -0.0029494255 -0.00075125025 0.0012108111 0.00027574942
0003c0 ca 81 ef bc 83 60 af 3c 84 b2 40 3d 13 97 8a bd
       -0.029236693 0.021408325 0.047045246 -0.06767096
0003d0 45 4c 46 3c 11 82 c7 3c b9 ec fb 3b 86 eb c0 bb
       0.012103145 0.024354013 0.0076881316 -0.0058874516
0003e0 ef 9f 1b bd c3 3b bf 3c 8f 37 a8 3c 13 13 2e 3c
       -0.03799432 0.023343926 0.020534305 0.010624665
0003f0 b8 62 03 3e 1e aa ba 3b 56 85 0a bd 90 4a 57 b9
       0.12830627 0.005696549 -0.033818565 -0.00020531774

bias_ih_l0 f4 [80]
000000 bc a1 60 3d 41 b9 83 3c 21 09 7f 3c 44 8c 96 3d
       0.054841742 0.016079547 0.015566141 0.07350972
000010 18 70 df 3c 56 b2 30 bc 65 2e 49 3a 59 5f 54 bc
       0.02727513 -0.010784706 0.0007674455 -0.012962186
000020 28 bb 87 3d 02 7e c1 3c af 99 f0 3c 26 04 65 3c
       0.06627494 0.023619656 0.029370157 0.01397804
000030 14 09 c8 bc 79 01 a4 bc 4f 71 c6 3c a5 d1 17 3d
       -0.024418391 -0.020020233 0.024223952 0.037065167
000040 0f be 07 3e 2d c5 ca 3c b8 fc c6 3c c9 6e 92 3d
       0.13256095 0.024752224 0.024290428 0.07150037
000050 71 08 33 3d e3 41 8c 3c 22 a0 87 3c 21 9f c3 3a
       0.043709222 0.017121261 0.01655585 0.0014924743
000060 a3 a9 17 3d cc 30 13 bc 02 c7 11 3d 74 8a 98 3c
       0.037027013 -0.008983802 0.03559018 0.018620707
000070 75 e9 e0 3d c2 c7 bf 3c 20 94 c7 3c bc 23 f9 bc
       0.109820284 0.023410682 0.024362624 -0.030412547
000080 e2 62 e8 3e 7c 51 e6 3b 4f 07 08 3d cd a0 3e 3d
       0.45387942 0.0070287567 0.033210095 0.04654007
000090 5f 32 99 3e f5 c0 e2 b8 b1 b8 3c 3c 9e a8 2a bd
       0.29921243 -0.00010812461 0.011518643 -0.041664712
0000a0 f6 b0 b5 bd 22 f0 45 bd ae 2d e4 3c bd 26 59 bd
       -0.08871643 -0.04832471 0.027853813 -0.05301546
0000b0 fd 23 28 be 8e db 68 3d 4c bd 70 3d 1c 41 55 be
       -0.16419978 0.05685001 0.058774278 -0.20825619
0000c0 d7 a6 a3 bd 92 81 f9 3d 91 b5 cf bd 4e 0b 61 bd
       -0.079908065 0.12182917 -0.10142053 -0.05494242
0000d0 34 4f 00 be eb 9e 91 3d 22 9b d0 bd 44 95 f6 bd
       -0.12530214 0.07110389 -0.10185839 -0.12040189
0000e0 e0 0d 78 3d 70 44 72 3d ec 79 ca 3d 20 6b ef bd
       0.060560107 0.0591473 0.09886536 -0.11690354
0000f0 63 0a dd 3c a4 5d cd b8 a1 a7 ca 3c d8 bf 53 bd
       0.026982492 -9.792604e-05 0.024738135 -0.05169663
000100 2c a9 4b bd 99 a0 fd bc 6c 30 76 3c 60 f9 41 bd
       -0.04972188 -0.030960368 0.015026193 -0.047356963
000110 73 0c 4b bd 83 24 7b 3d 25 99 9a bd 5f 40 71 3d
       -0.04957242 0.061314117 -0.07548741 0.05889928
000120 ed 43 43 3e 8c c4 0d bd 20 3c 1e 3d 62 47 83 bb
       0.1906888 -0.03461127 0.03863156 -0.004006312
000130 e0 68 13 3e 79 7d 1a 3c f3 f7 9d 3c d2 57 d3 bb
       0.14395475 0.009429329 0.01928327 -0.006449678

bias_hh_l0 f4 [80]
000000 a7 b3 3e 3d 07 66 61 3c 94 e9 d5 3c 94 4b f3 3d
       0.04655805 0.013757235 0.026112355 0.1187965
000010 2f 11 26 3d 50 2e 91 3b c6 50 f1 3b 5e 10 e2 bc
       0.04054373 0.0044305697 0.0073643653 -0.027595695
000020 87 84 99 bc 27 2c cb 3b cb 45 a3 bc 77 37 42 bd
       -0.018739952 0.0062003317 -0.01993074 -0.047416177
000030 96 35 62 bd e7 fb 89 bb 37 60 c9 3b 2c 67 4b bc
       -0.055226885 -0.0042109373 0.006145503 -0.012414735
000040 5d 43 0a 3e 03 34 a7 3c cf 9d be 3c 58 2e 69 bd
       0.1350226 0.020410543 0.023268608 -0.056928962
000050 8f 64 7e 3d 82 54 7b 3c a7 bb 93 3c 17 e9 00 3e
       0.06210762 0.015339972 0.018033816 0.12588917
000060 57 96 35 3c d3 c0 88 bc 50 6d 1c 3d 22 09 dd bc
       0.011083207 -0.016693508 0.038190186 -0.026981894
000070 71 d5 18 3c cd 32 f3 3c 93 08 d9 3d 8d 6e b1 ba
       0.009328232 0.02968731 0.105973385 -0.0013536975
000080 e1 d1 04 3f 04 bf ca bb c4 f2 c4 3c 62 70 47 bc
       0.5188275 -0.0061873216 0.02404154 -0.01217279
000090 56 91 8d 3e a7 6d 95 3c 24 44 13 3d 59 d8 36 bd
       0.27649945 0.018240763 0.035953656 -0.04463992
0000a0 ce 32 d8 bc 74 b7 1e 3d fe 19 c5 3a f5 89 6c bd
       -0.026391413 0.038749173 0.0015037654 -0.057748754
0000b0 c6 6b 41 3d 72 3c 60 bc c0 33 00 be 9a 59 83 bc
       0.04722192 -0.013686286 -0.12519741 -0.016033936
0000c0 14 9f e6 bd c2 ed f9 3d 11 22 5c bc 65 3a e1 bd
       -0.112608105 0.12203552 -0.013435856 -0.10997466
0000d0 f6 54 3c 3d f6 12 38 be 03 d2 82 3c 00 3d 49 3c
       0.045979463 -0.17975983 0.015969282 0.01228261
0000e0 7c 70 00 be 23 de c4 bd 98 03 ca 3d 99 80 9a bd
       -0.1254291 -0.09612682 0.09863967 -0.07544059
0000f0 06 42 d2 3c df 09 87 3c d5 71 d4 3c ed 09 07 3e
       0.025666248 0.0164842 0.025933186 0.1318738
000100 ba 53 5e 3d 4f 8f 55 bd 5f d3 5b bb 04 49 c4 3c
       0.054279067 -0.052138623 -0.0033542735 0.023960598
000110 a7 b3 44 bd 48 4f 9f bb 01 0c 36 3d 9a f3 ae bc
       -0.048022892 -0.004861746 0.04444504 -0.021356393
000120 cb cd f1 3d 75 4f 98 bc 52 a9 02 3c 10 a2 58 3d
       0.1180683 -0.018592576 0.007974939 0.05288893
000130 75 00 d0 3d 1c a0 15 bd 9e de 02 3d e0 d7 96 3d
       0.10156337 -0.036529645 0.031950586 0.07365394

weight f4 [1, 20]
000000 80 85 49 be 92 53 a8 3d 8a f7 f2 3d e8 06 20 be
       -0.19679832 0.08219065 0.118636206 -0.15627635
000010 79 e0 43 be d9 f5 29 3e 34 5a ed bd c8 da 2e be
       -0.19128598 0.1659769 -0.115894705 -0.17075646
000020 65 4b ea 3d 99 19 e1 3d e9 d8 08 be 7d 3b 87 bd
       0.114401616 0.109912105 -0.13363995 -0.06603143
000030 91 ae ad 3e 03 2e 13 be bc 7b 35 be 74 82 2e 3e
       0.33922246 -0.14373021 -0.17722982 0.17041951
000040 a8 b7 3f 3e 35 86 0a 3e b2 8c 27 3e be 17 23 be
       0.18722403 0.13527758 0.16362265 -0.15927026
