submissions/team_uw/src/Netherlands.pth (torch, 12727 bytes, 5 tensors)

weight_ih_l0 f4 [80, 9]
0	0xb8b5d938	-8.671213e-05
1	0xba041109	-0.0005037939
2	0x37369bac	1.08842905e-05
3	0xb8b1f5e5	-8.485819e-05
4	0xba817c6f	-0.0009879003
5	0x39b0a2c9	0.0003369062
6	0x3812a404	3.4961864e-05
7	0x3920f971	0.00015351713
8	0x38c05417	9.1709364e-05
9	0x3c8a9035	0.016914466
10	0x3d0d45ae	0.03449028
11	0x3d2d16af	0.04225796
12	0x3d1d12bb	0.03834794
13	0x3d03dfec	0.03219597
14	0x3cbadc30	0.022810072
15	0x3b851f11	0.0040625413
16	0x3d10a847	0.03531673
17	0x3cb54740	0.022128701
18	0x3c6121ca	0.013740966
19	0x38ca7a27	9.654863e-05
20	0xba263b1e	-0.00063412066
21	0x3a9cbf5e	0.0011958887
22	0xbc1b2d78	-0.00947129
23	0x3b2437ac	0.0025057597
24	0x3b1032a9	0.0022002852
25	0x3be42ebe	0.00696358
26	0xbb3f31eb	-0.002917404
27	0x39a41701	0.00031297657
28	0x398f3432	0.00027313974
29	0x39b39219	0.00034250392
30	0x397cba02	0.00024101886
31	0xb884c496	-6.3308675e-05
32	0x3a0249ec	0.00049701217
33	0x3905b71d	0.00012752083
34	0x396c194c	0.00022516138
35	0x38cc2421	9.7342076e-05
36	0x3ba24873	0.0049524843
37	0xb98f34c5	-0.00027314402
38	0xb87a1ae0	-5.9629674e-05
39	0x39baf5a2	0.00035659695
40	0xbb72be7e	-0.0037039812
41	0x3b36fb70	0.0027920865
42	0x3ab586cc	0.0013849377
43	0x3b4442e1	0.002994709
44	0xbacb3a30	-0.0015505012
45	0x3b226970	0.0024782084
46	0x39ab5284	0.0003267714
47	0x39aea2ab	0.00033309063
48	0x3a18f13e	0.0005834288
49	0xba2e7e7e	-0.0006656422
50	0xbb738ee7	-0.0037164034
51	0xb894cbdd	-7.0951624e-05
52	0x3aadb825	0.0013253732
53	0xb85991a1	-5.187246e-05
54	0x39c1300b	0.00036847623
55	0x3a40955c	0.0007346475
56	0x3a3beb7f	0.00071685755
57	0x3a42425d	0.00074104016
58	0xb93ce4b0	-0.0001801427
59	0x3a401354	0.0007327099
60	0x39d968b2	0.0004146747
61	0x3a87f791	0.0010373463
62	0x3a6d82f8	0.00090603484
63	0x3a942220	0.0011301674
64	0x3b26e41b	0.0025465551
65	0x3b2112f4	0.0024577947
66	0x3b19c429	0.0023462868
67	0xba944989	-0.0011313419
68	0x3b84650b	0.0040403656
69	0x3b13f774	0.0022577913
70	0x3b84c0ae	0.0040512895
71	0x3b60896b	0.0034261595
72	0x39dbde04	0.0004193635
73	0x3a06cd26	0.0005142264
74	0x3a246145	0.0006270598
75	0x39ef1fb5	0.00045609256
76	0x398870e7	0.0002602406
77	0x3a65f38f	0.000877195
78	0x3990522c	0.00027527043
79	0x39a4af81	0.00031411278
80	0x392777df	0.00015971017
81	0x3ca2ca4b	0.019871851
82	0x3c133f5d	0.008987275
83	0x3c7b0e99	0.015323305
84	0x3c335936	0.0109465625
85	0x3bcbc2a7	0.0062182727
86	0xbacd7857	-0.0015676123
87	0x3b37987f	0.0028014479
88	0x3c7d0bd3	0.015444714
89	0x3b019904	0.0019775042
90	0x3c9b22fe	0.018937584
91	0x3c62ebc9	0.013850161
92	0x3cae7061	0.02129382
93	0x3c91e7f7	0.017810805
94	0x3c2bbc66	0.010481929
95	0x3c2a2543	0.01038486
96	0x3b452056	0.0030079088
97	0x3cadc239	0.021210777
98	0x3bd36017	0.006450664
99	0x3c91bbbc	0.017789714
100	0x3ca6cae6	0.020360421
101	0x3cc4f36a	0.02404185
102	0x3cc38f03	0.023871904
103	0x3cb826c5	0.022479424
104	0xbb4a3de2	-0.003085964
105	0xbb1f6654	-0.0024322467
106	0x3cbc5897	0.022991462
107	0x3c124208	0.008926876
108	0x3a9d2d9d	0.0011991743
109	0x3a6b772c	0.00089822966
110	0x3a9791e7	0.0011563868
111	0x3a4bc0cc	0.00077725644
112	0xb9ad5ccb	-0.00033066267
113	0x3add786b	0.0016896849
114	0x39f78666	0.00047211646
115	0x3a3b454e	0.0007143811
116	0x398b181e	0.00026530115
117	0x3e0009f8	0.12503803
118	0xbd0590c3	-0.03260876
119	0xbd029256	-0.031877838
120	0xbc021304	-0.007939104
121	0x3e13b0cb	0.1442291
122	0x3d80b09d	0.06283686
123	0xbc8339b9	-0.016018735
124	0xbd71ae54	-0.059004143
125	0xbe064605	-0.13112648
126	0x3a1d6d12	0.00060053275
127	0x39814e86	0.00024663302
128	0x398834f4	0.00025979395
129	0x398666ca	0.00025635055
130	0xba2d3cc4	-0.0006608481
131	0x3a36e2ac	0.0006976526
132	0x396799e3	0.00022087204
133	0x3a2b3435	0.0006530912
134	0x397c904e	0.0002408635
135	0x3a44267b	0.00074825407
136	0x3a83c8a9	0.0010054308
137	0x3a96730b	0.0011478377
138	0x3a68338a	0.00088577776
139	0x396c33bd	0.00022525988
140	0x3ae28d66	0.0017284572
141	0x3a48d3c6	0.0007660951
142	0x3a6e26df	0.0009084772
143	0x3a2db352	0.0006626147
144	0x3c0de246	0.008659905
145	0x39840ed2	0.00025188044
146	0x3a0f1292	0.0005457784
147	0x3aedd724	0.0018145782
148	0xbaffcf02	-0.0019516649
149	0x3aa5d0da	0.0012650744
150	0x3ae7346a	0.0017639522
151	0x3bb9123d	0.005647926
152	0xbb2b6fb7	-0.0026159117
153	0x3a0d61a2	0.00053932716
154	0x39d0a1ce	0.00039793405
155	0x39b46163	0.00034404834
156	0x39f317ec	0.00046366395
157	0x397d0c8f	0.00024132639
158	0x379b5b7c	1.852004e-05
159	0x392db814	0.0001656714
160	0x3988b3da	0.0002607394
161	0x395bb5ad	0.00020953147
162	0x374729c3	1.1871048e-05
163	0x388cc625	6.7126275e-05
164	0x388118a9	6.155793e-05
165	0x389c1b19	7.443707e-05
166	0x3885d809	6.382174e-05
167	0xb6731b78	-3.622581e-06
168	0x37a516b6	1.9680108e-05
169	0x385bb166	5.2378884e-05
170	0x3874d6da	5.837423e-05
171	0x38fe1265	0.0001211509
172	0x392f3706	0.00016709798
173	0x394b2177	0.00019372055
174	0x391997b1	0.00014647726
175	0x382313e3	3.888075e-05
176	0x39a151cf	0.00030769265
177	0x38e2b09f	0.00010809418
178	0x39110f56	0.0001383399
179	0x38bd7234	9.033494e-05
180	0xb8b05e44	-8.409892e-05
181	0x389cd010	7.477414e-05
182	0xb908c24a	-0.00013042349
183	0xb790df5d	-1.727015e-05
184	0xb984e776	-0.00025349454
185	0xba0fe396	-0.000548893
186	0x38272507	3.9850387e-05
187	0x393ad837	0.00017818889
188	0x3906f439	0.00012870216
189	0x3ce9bd64	0.028532691
190	0x3d634fbc	0.055495963
191	0x3d24c7ec	0.040229723
192	0x3d60fc46	0.054928087
193	0x3cf8ba25	0.030362198
194	0x3c87333b	0.01650392
195	0x3bad7c01	0.0052943234
196	0x3d5a739e	0.053332917
197	0x3cf7cb09	0.030248182
198	0x3c6bc290	0.014389649
199	0x391f2e18	0.00015180593
200	0xbb160513	-0.0022891208
201	0xbafdd3e9	-0.0019365522
202	0xbbebd100	-0.0071965456
203	0xb9df154a	-0.00042549736
204	0x3b3768d0	0.0027986057
205	0x3bdd148b	0.0067468337
206	0xbb7cbb03	-0.0038563616
207	0x399209e5	0.00027854662
208	0x3929a7cc	0.00016179605
209	0x3965a169	0.00021899272
210	0x390f5e99	0.00013672783
211	0xb91c5e75	-0.00014912507
212	0x39c8c53d	0.00038293927
213	0x38a3a86c	7.803817e-05
214	0x3920561f	0.00015290872
215	0x380f75df	3.4203633e-05
216	0x3ba6fd47	0.005096111
217	0xba9004ed	-0.0010987796
218	0xba7e6b74	-0.0009705343
219	0xb97c179d	-0.0002404139
220	0xbb86afe6	-0.004110324
221	0x3b791a3c	0.0038010022
222	0x3ac83d0a	0.001527698
223	0x3b467118	0.0030279811
224	0xbaf23f93	-0.0018482081
225	0x3b1c228c	0.0023824302
226	0xbb060f37	-0.0020455846
227	0x3a9a75ea	0.0011784409
228	0x39080655	0.0001297233
229	0xbb40042d	-0.0029299364
230	0xbb3ddcfd	-0.002897083
231	0xb90f4571	-0.00013663412
232	0x3a820539	0.0009919769
233	0xb9cf13b7	-0.00039496805
234	0x39ac8f1e	0.00032913027
235	0x39db3e96	0.00041817565
236	0x39c101e5	0.0003681324
237	0x39e34bc0	0.00043353252
238	0xb9eb981b	-0.0004493602
239	0x39eebafa	0.00045534206
240	0x3982b12b	0.00024927533
241	0x3a56f991	0.00082006404
242	0x3a390dbd	0.0007059237
243	0x3a8875e3	0.001041111
244	0x3b00c63e	0.0019649412
245	0x3aec7468	0.0018040063
246	0x3aedba2c	0.0018137149
247	0xbad39454	-0.0016142228
248	0x3b7804d9	0.0037844686
249	0x3acdcb3c	0.0015700827
250	0x3b689e27	0.0035494657
251	0x3b446c8e	0.002997193
252	0x39bec8cd	0.00036389232
253	0x39c5bc76	0.00037715182
254	0x39fa3590	0.00047723623
255	0x39ab4ff4	0.0003267523

weight_hh_l0 f4 [80, 20]
0	0xb7288afa	-1.0045938e-05
1	0x39598e45	0.00020747732
2	0xb91091be	-0.00013787203
3	0x370a3137	8.2369e-06
4	0x379ace43	1.8454279e-05
5	0x37a50663	1.9672507e-05
6	0x3767ee7b	1.38241985e-05
7	0xb7f2e90e	-2.8957173e-05
8	0x36e16c72	6.7181472e-06
9	0xb8f7e3c8	-0.000118203054
10	0x3887da8a	6.478008e-05
11	0xb8bcce44	-9.0029585e-05
12	0x37952df8	1.778359e-05
13	0x38db0d76	0.00010445241
14	0xb7d1340d	-2.493898e-05
15	0x363266ea	2.658397e-06
16	0xb91f2d31	-0.00015180257
17	0xb63ff481	-2.8603538e-06
18	0x35bb944a	1.3975744e-06
19	0xb6be6cdc	-5.675114e-06
20	0x3adb8fd7	0.0016751242
21	0x3d032ae8	0.03202334
22	0xbc8c0d82	-0.017096285
23	0x3a8bdb62	0.001067024
24	0x3c26032d	0.010132593
25	0x3bd10247	0.0063784453
26	0x39133516	0.00014038789
27	0x3a1c637c	0.0005965752
28	0x3a762513	0.000938968
29	0xbcbd34f6	-0.023096543
30	0x3cd988ee	0.026554551
31	0xbcea102d	-0.028572166
32	0x3b04e1ec	0.0020276261
33	0x3d5ebf18	0.05438146
34	0xbb0f776d	-0.0021891252
35	0xb89d8ad1	-7.5122e-05
36	0xbc960073	-0.018310761
37	0x3a8623df	0.0010234079
38	0xb8b7a072	-8.756005e-05
39	0xb9bb0363	-0.00035669943
40	0x39b722b6	0.00034930342
41	0x3c1f0808	0.009706505
42	0xbb9c5983	-0.004771413
43	0x3a061cf1	0.0005116007
44	0x3b34bc40	0.0027578026
45	0x3b388355	0.0028154452
46	0x39c1320d	0.0003684912
47	0x3907d0c7	0.00012952379
48	0x3a0c106d	0.0005343024
49	0xbbd7a59d	-0.006581022
50	0x3c069cdc	0.008216109
51	0xbc04c440	-0.00810343
52	0x3a720cbc	0.0009233465
53	0x3c32774c	0.0108927
54	0xba642006	-0.00087022816
55	0x39d888d9	0.0004130069
56	0xbbc81ada	-0.0061067166
57	0x39501207	0.00019843141
58	0x37de7ecf	2.6523512e-05
59	0xb9b76ed9	-0.00034987068
60	0x3753ab89	1.2616519e-05
61	0x39a44a63	0.0003133594
62	0xb926029b	-0.00015831964
63	0x37749a8c	1.4579517e-05
64	0x38dab6c4	0.00010429093
65	0x3889b821	6.566966e-05
66	0x37857976	1.5911395e-05
67	0xb7d3b237	-2.5236148e-05
68	0x378b4aa3	1.6604847e-05
69	0xb96d38d6	-0.00022623254
70	0x3986f3e8	0.00025740196
71	0xb988a9d5	-0.00026066476
72	0x37fad588	2.9901756e-05
73	0x39917cbd	0.00027749492
74	0xb7d070bb	-2.4848026e-05
75	0x37b7d90b	2.1916368e-05
76	0xb942422d	-0.00018525934
77	0x375775d4	1.2842433e-05
78	0xb5a5768f	-1.2327963e-06
79	0xb74def8e	-1.2274728e-05
80	0x3961bc27	0.00021527764
81	0x3b9a8ec8	0.004716728
82	0xbb1f839b	-0.0024339918
83	0x39739a49	0.00023231762
84	0x3ac5d9b4	0.0015094788
85	0x3a9f0606	0.0012132532
86	0x399800b1	0.00028992214
87	0xb989a572	-0.00026253943
88	0x39783aeb	0.00023673072
89	0xbb5b0fa6	-0.0033426075
90	0x3b80b995	0.003928373
91	0xbb799174	-0.0038081082
92	0x39f1a793	0.00046091955
93	0x3b99872a	0.0046853023
94	0xb9ea600d	-0.0004470352
95	0x398f6574	0.00027350674
96	0xbb417380	-0.0029518306
97	0xb5305e16	-6.570202e-07
98	0x381647d4	3.5829682e-05
99	0xb940134f	-0.0001831774
100	0x38a6e631	7.958373e-05
101	0x3b196be7	0.0023410262
102	0xbac34c20	-0.0014900006
103	0x38ea67ae	0.00011177301
104	0x3a0e24c8	0.0005422351
105	0x3a0cf530	0.0005377112
106	0x38279797	3.995708e-05
107	0x388b7187	6.6491826e-05
108	0x38d7db7a	0.000102928796
109	0xbad07ec1	-0.0015906916
110	0x3adab4c8	0.0016685957
111	0xbae44c2b	-0.0017417719
112	0x39608d54	0.00021414954
113	0x3b608253	0.0034257367
114	0xb966e4b2	-0.00022019705
115	0x385d236f	5.2723506e-05
116	0xbad1d193	-0.0016007893
117	0x387916ff	5.9387643e-05
118	0xb6cb140b	-6.0522048e-06
119	0xb85705d7	-5.1265433e-05
120	0x37cd3a85	2.4465155e-05
121	0x3a494dcb	0.00076791336
122	0xb9c66f60	-0.00037848484
123	0x380ce7d6	3.3594515e-05
124	0x39871c87	0.0002577046
125	0x390aa5d6	0.00013222484
126	0x382780ca	3.9935847e-05
127	0xb8bbff97	-8.964462e-05
128	0x382c4f00	4.108157e-05
129	0xba120ce4	-0.0005571379
130	0x3a241a27	0.00062600005
131	0xba2304d5	-0.00062186766
132	0x38971216	7.20361e-05
133	0xb898afc8	-7.2806666e-05
134	0xb854a2ac	-5.069624e-05
135	0x3886c6d3	6.426652e-05
136	0xb9ec6a05	-0.00045092418
137	0x3835f04f	4.3377568e-05
138	0xb70aa190	-8.263058e-06
139	0xb805e928	-3.1926815e-05
140	0x388347f5	6.25997e-05
141	0x3b4a98aa	0.0030913749
142	0xbad51ce1	-0.0016259217
143	0x391a35dd	0.0001470665
144	0x3a832411	0.0010005255
145	0x3a1293d8	0.00055914884
146	0x3960b2da	0.00021428932
147	0xb9f90a18	-0.000475005
148	0x393b4fe1	0.00017863467
149	0xbb168c15	-0.002297168
150	0x3b2020ee	0.002443369
151	0xbb1804d5	-0.002319624
152	0x39a8f12d	0.00032223147
153	0x3981c9a6	0.00024755037
154	0xb982289c	-0.0002482579
155	0x399bb586	0.0002969915
156	0xbb044347	-0.0020181702
157	0x39183fcc	0.00014519616
158	0xb7eda50f	-2.8329463e-05
159	0xb918bdad	-0.0001456651
160	0x37c27e23	2.318534e-05
161	0x3a110a3c	0.0005532836
162	0xb9989ccf	-0.0002910853
163	0x37bf643f	2.2815655e-05
164	0x3942749d	0.00018544724
165	0x38e418fc	0.00010876541
166	0x37f23644	2.8873917e-05
167	0xb85e1c9d	-5.2955573e-05
168	0x37b79b75	2.188769e-05
169	0xb9d6aa39	-0.00040944087
170	0x39f0867c	0.00045876566
171	0xb9f6844d	-0.00047019348
172	0x383eed16	4.5520334e-05
173	0x3a00bc20	0.00049108453
174	0xb84ac617	-4.834504e-05
175	0x37f94334	2.9714407e-05
176	0xb9a6551c	-0.000317254
177	0x378ac8d9	1.6544409e-05
178	0x3540b3a1	7.178697e-07
179	0xb78e13a4	-1.6936865e-05
180	0x3a68567f	0.00088629866
181	0x3c995719	0.01871829
182	0xbc1b339f	-0.009472757
183	0x3a4ff4ab	0.00079328817
184	0x3ba783c5	0.0051121437
185	0x3b91c828	0.0044489093
186	0x398df1dc	0.00027073815
187	0x3a098200	0.0005245507
188	0x3a4dc22c	0.0007849063
189	0xbc534df1	-0.012897001
190	0x3c6c438d	0.014420402
191	0xbc828a41	-0.015935065
192	0x3ab3afad	0.0013708972
193	0x3cbfbcab	0.023405394
194	0xbab5cb08	-0.0013869712
195	0x399fdf42	0.00030493183
196	0xbc347965	-0.011015271
197	0x3a0611aa	0.00051143265
198	0xb825878d	-3.9465307e-05
199	0xb9d70173	-0.00041009075
200	0x3a96d3e8	0.0011507245
201	0x3cb1ce9d	0.021704966
202	0xbc38f695	-0.0112892585
203	0x3a6601ed	0.00087740907
204	0x3bddf9c5	0.0067741596
205	0x3ba26e29	0.00495698
206	0x39af0a20	0.00033386145
207	0x39e8570a	0.00044315337
208	0x3a5ec51d	0.0008498
209	0xbc7bfe1f	-0.015380411
210	0x3c9478af	0.018123953
211	0xbc95ac29	-0.018270569
212	0x3ad9f34b	0.0016628293
213	0x3cd975d5	0.026545445
214	0xbad3b1b1	-0.0016150979
215	0x39ccac38	0.00039038225
216	0xbc525231	-0.012836979
217	0x3a03a17e	0.00050213176
218	0xb7e37cad	-2.7118565e-05
219	0xb9dfb585	-0.00042669117
220	0x3a27be09	0.0006398862
221	0x3ccdb439	0.02511035
222	0xbc5700ed	-0.013122779
223	0x3a449dc3	0.0007500315
224	0x3be03414	0.0068421457
225	0x3babfd81	0.005248726
226	0xb9c51217	-0.00037588246
227	0x3ae21d99	0.0017251252
228	0x3a0d1cc7	0.00053830113
229	0xbc8fc2e0	-0.017548978
230	0x3ca7f0cd	0.020500565
231	0xbcacc6b9	-0.021090852
232	0x3aab43e9	0.0013066503
233	0x3d324c54	0.043529823
234	0xbad2f19c	-0.0016093734
235	0xba54e1f0	-0.00081208255
236	0xbc636964	-0.013880108
237	0x3a42a593	0.0007425185
238	0xb620e178	-2.3973098e-06
239	0xb81fb196	-3.8073944e-05
240	0x383547cf	4.322064e-05
241	0x3a90cbfe	0.0011047123
242	0xba124269	-0.0005579354
243	0x385fb03a	5.3331467e-05
244	0x39c19c95	0.0003692849
245	0x39761d5a	0.00023471322
246	0x386a2470	5.5823883e-05
247	0xb8b0843e	-8.416966e-05
248	0x387d2d68	6.036219e-05
249	0xba515d39	-0.00079866085
250	0x3a6e6771	0.00090943935
251	0xba710e4c	-0.0009195551
252	0x38e09d5e	0.00010710464
253	0x3a89516c	0.0010476536
254	0xb8b55331	-8.646248e-05
255	0x38a40709	7.82144e-05

bias_ih_l0 f4 [80]
0	0xbc1cb939	-0.009565645
1	0x3da651ee	0.081210956
2	0x3c91a11d	0.01777702
3	0x3a231615	0.0006221247
4	0x3c4ac95a	0.0123771075
5	0xbbe6482e	-0.0070276475
6	0x3a2ed2bf	0.0006668977
7	0x3b803ab6	0.003913249
8	0x3a97fc48	0.0011595571
9	0x3da2873c	0.0793595
10	0x3daccf6d	0.08438001
11	0x3d9043c5	0.07044176
12	0x3b1025c0	0.0021995157
13	0x3e2463d6	0.1605371
14	0x3a60c698	0.00085745146
15	0x3ad01da0	0.001587797
16	0x3cb79f08	0.0224147
17	0xbb1e3155	-0.002413829
18	0x382af7b8	4.0761865e-05
19	0x39a61e43	0.00031684534
20	0x3a850feb	0.0010151839
21	0x3e276dec	0.16350526
22	0x3cc61757	0.024181051
23	0x39ff1f6e	0.00048660807
24	0x3c8f778f	0.017513065
25	0x3ad46323	0.0016203861
26	0x3990c0ee	0.00027609564
27	0x3b27b325	0.0025588956
28	0x3a82dca1	0.0009983965
29	0x3cd71f9f	0.026260195
30	0x3db9c86b	0.0907143
31	0x3de03db5	0.1094927
32	0x3af38926	0.0018580302
33	0x3f02c600	0.51083374
34	0x3a360a46	0.000694428
35	0x3a961b86	0.0011452294
36	0x3cfce1ed	0.030869449
37	0x39fa5799	0.0004774898
38	0x38dc4171	0.00010502607
39	0x397f80bd	0.00024366654
40	0x3c94c35c	0.01815956
41	0xbcc14443	-0.02359212
42	0xbe73079c	-0.23733371
43	0x3c5fcd80	0.013659835
44	0x3dc3ed93	0.09566798
45	0x3d110397	0.035403814
46	0x3c84191e	0.016125258
47	0x3cae3b99	0.021268653
48	0x3c7da248	0.015480585
49	0xbe14e750	-0.14541364
50	0x3e526a19	0.20548286
51	0xbe8d7699	-0.27629545
52	0x3c91c75e	0.017795261
53	0xbd686923	-0.05674089
54	0x3cb23808	0.021755233
55	0x3c95cdbc	0.018286578
56	0xbe812cf8	-0.2522962
57	0xbcdc6815	-0.026905099
58	0xbb255ef3	-0.0025233596
59	0xbcc8a0ec	-0.024490796
60	0x39a114ed	0.00030723904
61	0x3e23acd0	0.15983891
62	0x3ce895c6	0.02839173
63	0x3a096e6d	0.000524259
64	0x3c097155	0.008388837
65	0xbce549ad	-0.027989233
66	0x3a161a05	0.0005725923
67	0x3b1a56cd	0.0023550272
68	0x3a988cb1	0.0011638609
69	0x3c0974cc	0.008389663
70	0x3bcff2e3	0.006346093
71	0x3d3cd7f3	0.046104383
72	0x3b117c47	0.002219932
73	0x3e908ac2	0.28230864
74	0x3a50d893	0.00079668424
75	0x3add2ca3	0.0016874265
76	0x3c752987	0.014963514
77	0xb9eeb37b	-0.0004552862
78	0x381693e3	3.5900517e-05
79	0x39a6483f	0.00031715815

bias_hh_l0 f4 [80]
0	0xbc26b0fd	-0.010174033
1	0x3d46a768	0.048499495
2	0x3cddfbc5	0.027097592
3	0x3a1f87aa	0.0006085584
4	0x3c3ea86a	0.011636833
5	0xb99fc380	-0.00030472502
6	0x3a2d8edb	0.00066207134
7	0x3b369197	0.0027857774
8	0x3a9800b3	0.0011596888
9	0x3d8b3fbd	0.067992665
10	0x3d5e2c9f	0.054241773
11	0x3d91fef0	0.071287036
12	0x3b106c3f	0.0022037176
13	0x3e245d1b	0.16051142
14	0x3a61df4e	0.0008616344
15	0x3ad0df1b	0.0015935631
16	0x3cab5cfa	0.020918358
17	0x38a2a6f4	7.7558594e-05
18	0x3826edcd	3.9798953e-05
19	0x39a61460	0.00031677168
20	0xbbceb545	-0.00630823
21	0x3e24caa4	0.16092926
22	0x3bef8ac1	0.007310242
23	0x3a000eab	0.0004884998
24	0x3c402328	0.011727132
25	0xbc58d854	-0.01323517
26	0x3991a652	0.00027780473
27	0x3ac48d94	0.0014995807
28	0x3a82ec2f	0.0009988601
29	0x3cc062be	0.023484584
30	0x3dfe27f7	0.124099664
31	0x3d70df35	0.058806617
32	0x3af33c28	0.0018557357
33	0x3f02d175	0.51100856
34	0x3a360181	0.0006942973
35	0x3a955d5e	0.0011395623
36	0x3cd275fe	0.025691029
37	0x3ab8ea92	0.0014107993
38	0x38da75ad	0.00010416969
39	0x397f15e4	0.0002432685
40	0x3cade8f6	0.021229248
41	0x3e974401	0.2954407
42	0xbda42b61	-0.08016086
43	0x3c24243f	0.010018407
44	0x3dc06d6f	0.09395873
45	0x3e164b41	0.14677145
46	0x3cea1659	0.02857511
47	0xbd2c9b26	-0.04214015
48	0xbbad4fd1	-0.005289056
49	0xbe13332d	-0.14374991
50	0x3e82eb06	0.25569934
51	0xbc930307	-0.01794578
52	0x3cbecd6e	0.023291316
53	0xbd5594dc	-0.052143916
54	0xbdc200c9	-0.09472806
55	0x3b92052b	0.0044561825
56	0xbe06c180	-0.13159752
57	0x3a706fad	0.00091719144
58	0x3ca2e9c7	0.019886864
59	0x3b8294e8	0.003985036
60	0x3ac4b667	0.0015007973
61	0xb9575c9f	-0.00020538502
62	0x3c93f04b	0.018058917
63	0x3a090cb5	0.0005228029
64	0xbb8c43a5	-0.004280525
65	0xbca54d66	-0.020178508
66	0x3a08a2cc	0.0005212247
67	0x3ba61d5e	0.005069419
68	0x3a98a141	0.0011644737
69	0x3d96ac61	0.073570974
70	0x3b998eb0	0.004686199
71	0x3e0a2b98	0.13493192
72	0x3b12e11b	0.0022412005
73	0x3e90850b	0.28226504
74	0x3a51578b	0.0007985762
75	0x3adf7277	0.0017047663
76	0x3cf4a51e	0.02986389
77	0x3a788b5b	0.0009481215
78	0x3813a768	3.520344e-05
79	0x39a5bb9e	0.00031611038

weight f4 [1, 20]
0	0xbc416558	-0.011803947
1	0x3e874743	0.26421556
2	0xbe2b517f	-0.16730307
3	0x3d2c857a	0.04211948
4	0x3db744a5	0.0894864
5	0x3d853ba3	0.065055154
6	0x3d183338	0.03715822
7	0xbd72cdf4	-0.059278443
8	0x3d703ac2	0.058649786
9	0xbe67ddae	-0.22643158
10	0x3e7fe3f9	0.24989308
11	0xbe3b22ba	-0.18274966
12	0x3da22e26	0.07918958
13	0x3f30dc56	0.69086206
14	0xbd229c35	-0.039699752
15	0x3d91d566	0.07120781
16	0xbdd985b7	-0.10621207
17	0x3d4e36d3	0.050345253
18	0xbc07d256	-0.008289894
19	0xbcba39bf	-0.022732614
